models/cnn_model.pth (torch, 233564 bytes, 5 tensors)

conv1.weight f4 [64, 1, 3]
0	0x3df542b9	0.11975617
1	0xbd98d617	-0.074627094
2	0x3d32e6b1	0.043677036
3	0x3cda6b24	0.026662417
4	0x3d8c5062	0.06851269
5	0x3d7aa5c5	0.061193246
6	0x3e43f7db	0.19137518
7	0xbe3700e8	-0.1787144
8	0x3e243084	0.16034132
9	0xbe0c4da3	-0.13701491
10	0x3e907f24	0.28222
11	0x3ebda162	0.37037188
12	0xbe491a0d	-0.19638844
13	0x3ec49867	0.38397524
14	0x3db80682	0.08985616
15	0x3d3280a3	0.04357971
16	0xbc18cf0c	-0.009326708
17	0x3c825160	0.015907943
18	0x3c808f39	0.015693294
19	0x3cc09843	0.023510104
20	0xbbfce918	-0.0077182166
21	0xbe109b45	-0.1412173
22	0x3e96d576	0.29459733
23	0x3e47a848	0.19497788
24	0x3e6fa4ab	0.2340266
25	0xbe0c1811	-0.13681056
26	0x3dab8d3d	0.083765484
27	0x3d0e2a33	0.034708213
28	0x3bd216ba	0.0064114006
29	0xbc4194b7	-0.011815242
30	0x3df685f6	0.1203727
31	0xbd0548f0	-0.03254026
32	0xbe6aa6f8	-0.22915256
33	0x3c3c774f	0.011503055
34	0xbcb53304	-0.022119053
35	0x3c5ca954	0.013468105
36	0x3e474222	0.19458821
37	0xbe1edb1f	-0.15513276
38	0xbd8a0f9f	-0.06741261
39	0xbb590ee4	-0.0033120448
40	0xbe3fd4ee	-0.1873357
41	0x3df3aed0	0.11898577
42	0x3b5a76ad	0.0033334896
43	0x3bb2231b	0.005436314
44	0x3c3d9034	0.011570025
45	0xbe6edcb7	-0.23326384
46	0x3ed86af3	0.42269096
47	0x3eb83f59	0.3598583
48	0xbe4b4fb6	-0.19854626
49	0xbe1c2f77	-0.15252481
50	0xbe2f34bd	-0.17109962
51	0x3c9a8d33	0.018866157
52	0x3b685505	0.0035451066
53	0x3c6a8084	0.014312867
54	0xbd396b41	-0.0452683
55	0x3e9f8996	0.31159657
56	0xbd1bd036	-0.038040362
57	0x3c5e88cb	0.013582419
58	0xb8147960	-3.539899e-05
59	0x3cb9395f	0.022610364
60	0xbe8d9de9	-0.27659538
61	0xbe3edfd9	-0.18640079
62	0x3e70e289	0.23523916
63	0xbe3cc89b	-0.184359
64	0xbe64aa2f	-0.22330545
65	0x3c2a34ff	0.010388612
66	0x3bb00b91	0.0053724726
67	0xbba04f07	-0.0048922333
68	0x3b844fa9	0.0040378165
69	0xbb9062c9	-0.0044063074
70	0x3b308e54	0.0026940303
71	0x3c44ae2c	0.012004416
72	0xbd9b5966	-0.07585411
73	0x3e8c6bab	0.27425894
74	0x3bf7820d	0.007553345
75	0x3ecb0dfd	0.3965911
76	0x3ed93c1e	0.42428678
77	0xbe06168f	-0.13094543
78	0xbe7866e2	-0.24257997
79	0x3ef4f918	0.47846293
80	0x3ec9eac8	0.39436936
81	0x3de520af	0.111878745
82	0x3bb6fc1a	0.005584252
83	0xbe10fac0	-0.14158154
84	0xbd9e57e0	-0.077316046
85	0x3e87c456	0.2651698
86	0x3c29d2ac	0.0103651695
87	0x3eb0bfef	0.34521434
88	0xbe3f0a99	-0.18656386
89	0xbe39f97d	-0.18161578
90	0x3e03969b	0.1285042
91	0xbd2e5da5	-0.042569775
92	0xbe1d0bef	-0.15336584
93	0x3cec6c12	0.028860126
94	0xbc4ef55a	-0.012631739
95	0x3c85f5be	0.01635253
96	0x3c6fc59d	0.014634517
97	0x3c607fb2	0.01370232
98	0x3c89a4fb	0.016802302
99	0x3f0cf065	0.5505431
100	0xbc47529d	-0.012165693
101	0xbec891a4	-0.39173615
102	0x3d6a5b6d	0.057216097
103	0x3dbe9723	0.09306171
104	0x3dc46401	0.09589387
105	0x3c92c063	0.017914003
106	0x39401982	0.0001832005
107	0x3b6320a6	0.003465691
108	0x3ebd3508	0.36954522
109	0x3eca11be	0.3946666
110	0xbe3cc0c0	-0.18432903
111	0x3b3fb7a4	0.0029253745
112	0x3bd06220	0.0063593537
113	0x3a47aef7	0.00076173194
114	0x3dab082f	0.0835117
115	0x3dbf2b0c	0.093343824
116	0xbd131ecc	-0.035918042
117	0x3e95d738	0.2926576
118	0xbe15f0bd	-0.14642616
119	0x3dfb10ff	0.12259101
120	0x3df38531	0.118906386
121	0x3e099e94	0.13439399
122	0xbcfc2ede	-0.030784067
123	0x3eaeb789	0.341244
124	0x3ecff4b3	0.40616378
125	0xbe29eb3f	-0.16593646
126	0x3e2e6a99	0.17032851
127	0xbe4f2194	-0.20227653
128	0x3e3b55c2	0.18294433
129	0x3ed6c4ec	0.41947114
130	0xbe0a503c	-0.1350717
131	0x3e382091	0.17981173
132	0x3db54370	0.08850753
133	0xbc6ab88a	-0.014326224
134	0xbe22c7f3	-0.15896587
135	0x3d838276	0.06421368
136	0xbc5ee4d7	-0.013604364
137	0xbdc0a5af	-0.09406602
138	0xbe920801	-0.28521731
139	0x3ec5ac10	0.38607836
140	0x3f0e079d	0.55480367
141	0x3e21aceb	0.15788619
142	0xbd907971	-0.07054413
143	0x3e542cea	0.20720258
144	0xbdf9a52f	-0.121897094
145	0x3ed8a21c	0.4231118
146	0xbd1a9830	-0.037742794
147	0x3e591ed3	0.21203165
148	0xbd87d9fb	-0.06633373
149	0xbebfac39	-0.37436083
150	0x3e13a76d	0.14419337
151	0x3e365a40	0.17807865
152	0xbd56eba9	-0.052470837
153	0xbe9439ff	-0.28950498
154	0xbe7ae1fa	-0.24500266
155	0x3e1f342d	0.15547247
156	0x3bd96760	0.0066346377
157	0x3d20cf98	0.039260477
158	0xbc26ad29	-0.010173121
159	0x3d1ee881	0.03879595
160	0xbc93e4ca	-0.018053431
161	0x3c05f5cf	0.008176281
162	0xbcc51e69	-0.024062352
163	0x3da8fbf5	0.08251182
164	0x3db676e0	0.08909392
165	0x3c249023	0.0100441305
166	0x3ca27e94	0.019835748
167	0x3bc1f16e	0.0059186732
168	0x3eb86349	0.3601325
169	0xbe0dc38c	-0.13844126
170	0xbed6c87b	-0.4194983
171	0x3de5f598	0.11228484
172	0x3e16d358	0.14729059
173	0x3e81ef54	0.25377905
174	0x3e6bcc1e	0.23027083
175	0xbd99250a	-0.07477768
176	0xbe8346ca	-0.25639945
177	0x3c5f316f	0.013622626
178	0xb9f2cedb	-0.00046311956
179	0xbc7de6d6	-0.01549693
180	0xbdd3c4aa	-0.10340245
181	0xbdaa6ac3	-0.083211444
182	0x3dd8be29	0.10583145
183	0x3cae94e2	0.021311227
184	0x3c37f363	0.0112274615
185	0xbb4297f7	-0.002969263
186	0x3ad765f2	0.001643358
187	0x3c1c30e1	0.009533138
188	0x3badffd1	0.0053100367
189	0x3bce14e0	0.0062891096
190	0x3904403a	0.00012612427
191	0x3c29c12a	0.010360995

conv1.bias f4 [64]
0	0x3e929fa9	0.28637436
1	0x3e5d0a4b	0.21585958
2	0xbd79e677	-0.061010804
3	0x3da752fe	0.081701264
4	0xbf25c126	-0.64747846
5	0xbcdccba4	-0.026952572
6	0x3d52dbe2	0.051479228
7	0xbed49a20	-0.41523838
8	0xbe90444b	-0.28177103
9	0xbca19b15	-0.01972727
10	0xbf1fe7f1	-0.6246329
11	0xbd8dfabb	-0.06932589
12	0xbf2a1828	-0.6644311
13	0xbf31444c	-0.6924484
14	0xbc6bcc12	-0.014391916
15	0x3e873db0	0.2641425
16	0xbf2099a8	-0.6273446
17	0x3d9490a3	0.0725415
18	0x3e9a35a7	0.30119058
19	0xbc9fea9b	-0.019521048
20	0xbf161b98	-0.58635855
21	0xbf032fad	-0.5124462
22	0xbb744dd5	-0.0037277837
23	0xbc191e59	-0.009345614
24	0xbecc5b73	-0.3991352
25	0x3edfdc70	0.43722868
26	0x3d296e5d	0.041365016
27	0x3e732092	0.23742893
28	0xbec1e125	-0.37867084
29	0xbf32b151	-0.69801813
30	0x3e7750d5	0.24151929
31	0xbdd24b8b	-0.10268315
32	0xbd7221b3	-0.05911417
33	0x3e7bd745	0.24593838
34	0x3d7b7827	0.061393883
35	0x3d3691df	0.044572707
36	0x3e9397b7	0.28826687
37	0xbc03b5ea	-0.008038977
38	0x3e613e05	0.21996315
39	0x3e2b789c	0.16745228
40	0xbe4ed684	-0.20199019
41	0x3eb2c64c	0.34916914
42	0x3ebc769d	0.36809245
43	0xbf14c761	-0.5811673
44	0xbf0271f5	-0.50955135
45	0xbe857b0b	-0.26070437
46	0x3cda8d2f	0.02667865
47	0xbf148dca	-0.5802885
48	0xbefcf787	-0.49407598
49	0xbf38d0ff	-0.721939
50	0x3e844f89	0.2584193
51	0xbf1d0399	-0.61333615
52	0xbcecf69b	-0.028926184
53	0xbddc9c0d	-0.10771952
54	0xbdc594c7	-0.09647518
55	0x3eca6f99	0.39538267
56	0xbf274304	-0.6533663
57	0x3ec19898	0.37811732
58	0xbcc1ddd7	-0.023665352
59	0x3c2fb0d7	0.010723314
60	0x3ec91563	0.3927413
61	0xbc2dbaf1	-0.010603652
62	0xbc29900c	-0.010349285
63	0x3c89b69a	0.016810704

fc1.weight f4 [64, 896]
0	0x3d92558f	0.07145225
1	0xbc717d65	-0.014739369
2	0xbcd5f248	-0.026116505
3	0xbd536e3d	-0.051618803
4	0x3c80e472	0.015733931
5	0xbc0bb3a6	-0.008526718
6	0x3b1c8e92	0.002388869
7	0xbd9b501c	-0.07583639
8	0x3c4c6eae	0.01247756
9	0x3d72f137	0.05931207
10	0x3cfefbff	0.03112602
11	0xbb25a854	-0.0025277333
12	0xbd016921	-0.0315944
13	0xbd67fc79	-0.05663726
14	0x3c49f01f	0.012325316
15	0xbcbd5722	-0.023112837
16	0xbd41d94a	-0.047326364
17	0x3d6b4ee3	0.05744828
18	0xbd6b0665	-0.057379145
19	0x3c9fc24a	0.019501824
20	0xbc9f86f3	-0.019473528
21	0x3d645429	0.055744324
22	0xbdd90d99	-0.10598297
23	0xbd610aa1	-0.054941777
24	0xbd2acb27	-0.041697647
25	0xbd00363e	-0.03130173
26	0x3d65664c	0.05600576
27	0xbc9c6dc8	-0.019095317
28	0x3dc76cc1	0.0973754
29	0x3b23ab28	0.0024973843
30	0xbbe5c12c	-0.0070115533
31	0x3b79eb47	0.003813462
32	0x3ce13de9	0.027495341
33	0xbb5e8f81	-0.0033960047
34	0x3d5321ef	0.051546033
35	0xbd4bb131	-0.04972953
36	0x3d78ad06	0.060711883
37	0x3db01306	0.085973784
38	0x3cbf1618	0.023325965
39	0x3d434480	0.04767275
40	0xbd0775f4	-0.033071473
41	0xbdf89725	-0.121382035
42	0x3d4fbfd2	0.050720043
43	0x3d866144	0.06561521
44	0xbddb845a	-0.107186034
45	0x3d00d0aa	0.031448998
46	0x3d81f77e	0.063460335
47	0x3e2aac0b	0.16667192
48	0xbd9aad68	-0.07552606
49	0x3d9a982f	0.07548558
50	0xbe3526b9	-0.17690553
51	0xbd504ec8	-0.05085638
52	0xbd89b763	-0.06724431
53	0xbdca3639	-0.098736234
54	0x3d737a6f	0.059442934
55	0xbd7db6e4	-0.061941996
56	0x3cb1e8f8	0.021717533
57	0x3c985433	0.018594837
58	0x3da0649b	0.07831689
59	0xbcb039ec	-0.021511994
60	0xbbb890d8	-0.005632501
61	0x3c8cbb3d	0.017179126
62	0x3dc9891a	0.09840603
63	0x3dae7491	0.08518327
64	0xbdf9f853	-0.12205567
65	0x3e026c63	0.12736659
66	0xbd36446f	-0.044498857
67	0x3ca6f2b3	0.0203794
68	0xbc1a528f	-0.009419098
69	0x3dd1086d	0.10206685
70	0xbd00d5f4	-0.03145404
71	0x3bcd1778	0.006258901
72	0x3d2af603	0.04173852
73	0x3d547a47	0.051874425
74	0x3c86715b	0.016411474
75	0xbcece066	-0.028915595
76	0xbd4e0a9f	-0.050303098
77	0x3e262b4b	0.16227452
78	0xbc8a26c5	-0.01686419
79	0x3e1f1e73	0.15538959
80	0xbcb53cbf	-0.022123693
81	0x3bae8b9e	0.0053267023
82	0xbddeb996	-0.108752415
83	0xbdbd3be4	-0.09239939
84	0x3cb55e07	0.022139562
85	0x3b1a8de6	0.0023583113
86	0xbd5e5330	-0.054278553
87	0x3bf6f319	0.0075363037
88	0xbd80b244	-0.062840015
89	0x3bbbf7e5	0.0057363384
90	0x3d310548	0.043217927
91	0xbd81a9aa	-0.06331189
92	0xbc7781d9	-0.015106642
93	0x3d6b0a59	0.057382915
94	0xbda7ff97	-0.08203047
95	0x3dab1f5d	0.083555914
96	0xbd127d72	-0.035764165
97	0xbd426a26	-0.047464512
98	0xbdd282d8	-0.10278863
99	0x3d575903	0.052575123
100	0x3b8df43f	0.004332095
101	0x3ca46047	0.02006544
102	0x3dcdf28e	0.10056029
103	0x3d35604f	0.0442813
104	0x3d2e215c	0.042512283
105	0x3d0533ed	0.032520223
106	0xbe364e2f	-0.17803262
107	0xbc3ba629	-0.01145319
108	0xbd612d26	-0.054974698
109	0xbd7880fb	-0.06066988
110	0x3bc67900	0.006056905
111	0x3c08c0e4	0.00834677
112	0x3e25b003	0.16180424
113	0x3c7bde82	0.015372874
114	0xbc87350f	-0.016504792
115	0xbd89520e	-0.06705104
116	0xbd81fe1f	-0.06347298
117	0xbcbb85fd	-0.022891039
118	0x3d832efc	0.06405446
119	0xbccc3255	-0.024926344
120	0x3d4a0f42	0.049330957
121	0x3db5a751	0.08869804
122	0x3c312aa6	0.010813391
123	0x3d345a86	0.044031642
124	0xbd9197a5	-0.07109002
125	0x3b4a66d5	0.0030884047
126	0x3d9a829f	0.07544445
127	0x3b97f22f	0.004637025
128	0x3dc5e623	0.09663036
129	0x3d019aec	0.031641886
130	0x3dcbeb7d	0.09957025
131	0xbddd492e	-0.108049735
132	0x3d6d365b	0.057913166
133	0x3dcf58ac	0.10124335
134	0xbcb61308	-0.022225872
135	0xbe3da26a	-0.18518987
136	0xbdfc0ea4	-0.1230748
137	0xbd422598	-0.047399133
138	0x3e47c488	0.19508564
139	0x3e1237a4	0.14279038
140	0x3dd7e426	0.10541563
141	0xbd588588	-0.05286172
142	0x3d06c552	0.032903023
143	0x3ce12ec0	0.027488112
144	0x3d85fb11	0.06542028
145	0xbe46c8fc	-0.19412607
146	0xbc8fdc70	-0.017561167
147	0xbcb9cf2e	-0.022681799
148	0x3e1dd6d2	0.15413979
149	0xbd5c7fc1	-0.053832773
150	0xbd81b6bc	-0.06333682
151	0xbd1697bf	-0.03676581
152	0x3d05686e	0.032570295
153	0x3d8f5739	0.06999058
154	0x3d3a74eb	0.045521658
155	0xbd0256f1	-0.031821195
156	0x3b27ead8	0.0025622156
157	0xbba752db	-0.0051063127
158	0x3d188c1d	0.037242997
159	0x3cdbb1f4	0.026818253
160	0x3b51be27	0.0032004209
161	0x3db632a8	0.08896381
162	0x3dd44a39	0.10365719
163	0x3e1e6f7b	0.15472214
164	0x3dbf0075	0.09326259
165	0x3d757950	0.059930146
166	0xbd2505d9	-0.04028878
167	0xbd866ddb	-0.06563922
168	0x3e0ecde8	0.13945735
169	0x3d92c678	0.07166761
170	0xbbae4a5e	-0.005318924
171	0x3c1f62e2	0.009728165
172	0x3d050324	0.0324737
173	0xbc2fbaf5	-0.010725726
174	0xbc7d001f	-0.015441923
175	0x3cbe2a36	0.023213487
176	0x3d09fb67	0.03368702
177	0xbd4f27d1	-0.05057508
178	0xbd67c93e	-0.056588404
179	0x3c289356	0.010289034
180	0xbdfa1839	-0.12211651
181	0x3d27f1f9	0.041002247
182	0x3d2d03fa	0.04224012
183	0x3c4917b7	0.01227372
184	0x3a5adcaf	0.00083489245
185	0x3d8414ca	0.06449278
186	0x3cbdb122	0.023155753
187	0x3cd8787b	0.026424637
188	0x3d0f72c2	0.03502155
189	0x3c9ab7e4	0.018886514
190	0x3d1ec5a6	0.03876271
191	0x3dcdbaad	0.10045371
192	0x3d2e5c28	0.042568356
193	0x3de249e8	0.11049253
194	0x3b50d3ed	0.00318646
195	0xbdf19fa3	-0.117980264
196	0x3d1f2920	0.03885758
197	0x3dee0d63	0.11623647
198	0x3dbc349c	0.09189722
199	0xbc343c8b	-0.011000763
200	0xbd6ab930	-0.057305515
201	0x3ddc4204	0.10754779
202	0x3bc4a984	0.006001653
203	0x3d7c6b90	0.061626017
204	0xbe36113a	-0.17780009
205	0xbe5e9052	-0.21734741
206	0xbe840bb0	-0.25790167
207	0x3da484f4	0.08033171
208	0x3d806808	0.062698424
209	0xbd876a29	-0.06612045
210	0xbdd2da47	-0.10295539
211	0x3d16edce	0.036847882
212	0xbd5198ed	-0.051171232
213	0x3c2c41a0	0.010513693
214	0x3e10349f	0.14082573
215	0x3d0d8f9f	0.034560796
216	0xbca2c983	-0.019871479
217	0x3c9b1ec2	0.018935565
218	0xbddc5f9a	-0.10760422
219	0xbbb29b0c	-0.005450612
220	0xbd6836b2	-0.056692787
221	0xbd66766a	-0.056265272
222	0x3c1dc2ab	0.009628932
223	0x3d1001b2	0.035157867
224	0x3d00e74b	0.03147058
225	0x3d12fd12	0.035885878
226	0x3d176566	0.036961935
227	0x3e054b98	0.13017118
228	0x3b41a48e	0.0029547545
229	0xbcc55082	-0.02408624
230	0x3c3377b9	0.010953837
231	0xbd3e1297	-0.046404447
232	0x3c318ba6	0.010836517
233	0x3e7961fc	0.24353784
234	0x3dca37dc	0.098739356
235	0xbda78f2a	-0.08181603
236	0xbd1242a1	-0.035708074
237	0xbde1844e	-0.11011563
238	0xbcba70dc	-0.022758894
239	0xbd003ab7	-0.031305995
240	0x3c8d24f3	0.017229533
241	0xbd0248ae	-0.031807594
242	0x3c951f88	0.018203512
243	0x3d1415ec	0.03615372
244	0x3c8ebe36	0.017424684
245	0x3d7a6e0c	0.061140105
246	0x3da39ac5	0.07988504
247	0x3c3afacc	0.011412334
248	0xbd0fbcd3	-0.035092186
249	0x3d12e051	0.035858456
250	0xbd6c8de6	-0.057752512
251	0xbde814a3	-0.11332061
252	0xbb1c2f61	-0.002383195
253	0xbcb493d0	-0.022043139
254	0x3d3d437c	0.046206936
255	0xbb366c78	-0.0027835649

fc1.bias f4 [64]
0	0x39cae294	0.00038697256
1	0x3d59392e	0.053033046
2	0x3ce2fd24	0.027708597
3	0xbe4db6e9	-0.20089306
4	0x3c4c411d	0.012466696
5	0xbd467fca	-0.048461713
6	0xbc99fca9	-0.018797236
7	0x3c0f500d	0.008747113
8	0x3b96f943	0.004607351
9	0x3cf9a3ec	0.030473672
10	0x3d32e349	0.043673787
11	0xbac0d864	-0.0014712927
12	0xbd9db002	-0.076995865
13	0xbc5c7c16	-0.013457319
14	0xb883ee5c	-6.290965e-05
15	0x3d05724b	0.0325797
16	0xbb2e5182	-0.0026598875
17	0x3cb70483	0.022341019
18	0x3c0bba90	0.008528367
19	0x3c6c2757	0.014413676
20	0xbc9b787f	-0.018978355
21	0xbcb8449e	-0.022493657
22	0xbc1acb2e	-0.009447856
23	0xbe3c0e17	-0.1836475
24	0xbc4b13e1	-0.012394876
25	0xbc5a1d4c	-0.013312649
26	0xbc7b9786	-0.01535595
27	0x39ef4d02	0.00045643008
28	0x3c38a2bb	0.011269267
29	0x3c284341	0.010269941
30	0xbc5ab22a	-0.013348142
31	0x3cdb7b75	0.026792267
32	0x3cd1e972	0.02562401
33	0xbbdbd021	-0.0067081605
34	0xbbdc972a	-0.0067318873
35	0xbc1254a8	-0.008931316
36	0x3d492b02	0.04911328
37	0x3d199313	0.037493777
38	0x3ca53e22	0.020171229
39	0x3c565bb4	0.013083387
40	0x3be63748	0.007025633
41	0x3c0ca28a	0.008583674
42	0xbd67b8cf	-0.05657273
43	0x3d3f5493	0.046711516
44	0xbd2c1b69	-0.042018328
45	0x3e2ce2da	0.16883412
46	0x3d3d9661	0.04628599
47	0x3c602492	0.013680594
48	0x3ce7140b	0.0282078
49	0x3bfab2ff	0.0076507325
50	0x3cd491f0	0.025948495
51	0x3b4b8d92	0.0031059724
52	0xba017168	-0.00049378583
53	0x3d0fe30f	0.03512865
54	0xbd1c8e90	-0.038221896
55	0xbc8a330b	-0.016870042
56	0x3bb6a947	0.0055743787
57	0xbe56922c	-0.20954198
58	0x3c841d28	0.016127184
59	0xbc8ff59a	-0.017573167
60	0xbb8bf795	-0.0042714574
61	0xbcb34f0f	-0.021888284
62	0xbaa996f0	-0.001293866
63	0xbdb40ae7	-0.08791142

fc2.weight f4 [1, 64]
0	0xbc271d67	-0.010199881
1	0xbcde1425	-0.027109215
2	0xbbe64ac7	-0.007027957
3	0x3dcb3e70	0.099240184
4	0x3be85b44	0.007090958
5	0xbbfc682c	-0.007702848
6	0xbbf46a4c	-0.0074589606
7	0x3bcd2d51	0.0062615057
8	0xbb844970	-0.0040370747
9	0xbc462971	-0.012094841
10	0x39ea1968	0.00044650887
11	0xbc0c47b5	-0.008562018
12	0x3cd29610	0.025706321
13	0x3b866301	0.0041011577
14	0x3c8868fd	0.016651625
15	0xba96dba8	-0.0011509554
16	0x3c2c6f12	0.010524528
17	0xbbbf31c4	-0.00583479
18	0x3c8e603e	0.017379876
19	0xbc3b9c6b	-0.011450867
20	0x3b581300	0.003297031
21	0x3b8a877a	0.004227576
22	0x3b765c59	0.0037591665
23	0x3ddbe996	0.10737912
24	0xb9d05461	-0.0003973572
25	0xbb80a994	-0.0039264653
26	0xbc1df003	-0.009639743
27	0x3b452eda	0.003008774
28	0x3b99d627	0.0046947184
29	0xbc29b993	-0.010359186
30	0x3bd085d6	0.0063636107
31	0x3b53c72d	0.0032314763
32	0x3a66d5cc	0.0008805662
33	0x3bab553e	0.0052286675
34	0x3c081bfd	0.008307454
35	0xba6165c5	-0.00085982337
36	0x3be8af04	0.0071009416
37	0xba4c5d8c	-0.0007795922
38	0x3c0d98cf	0.008642389
39	0xbbb5e8a1	-0.005551413
40	0xbadb566e	-0.0016734132
41	0x3c6826a2	0.014169367
42	0x3c274e1d	0.010211495
43	0xbc0bf710	-0.008542791
44	0xbb0974b6	-0.0020974106
45	0xbd8b4f5b	-0.06802245
46	0xbb0d118a	-0.0021525347
47	0xbb6b0a25	-0.00358642
48	0xbb85245e	-0.004063173
49	0xbbb5bf72	-0.0055465037
50	0xbc0b732f	-0.008511349
51	0x3c667598	0.0140661225
52	0xbb85aabe	-0.004079192
53	0xbcb2d166	-0.021828365
54	0x39586118	0.00020635535
55	0xbc13ddaa	-0.009025017
56	0xbb093e3f	-0.0020941643
57	0x3e123c46	0.14280805
58	0xbcaa9992	-0.020825181
59	0x36e3b6b0	6.786395e-06
60	0x3b1887b5	0.0023274247
61	0x3b3df36a	0.0028984197
62	0x3c3c53f9	0.01149463
63	0x3cdefb52	0.027219448
