models/lstm_model.pth (torch, 101222 bytes, 5 tensors)

lstm.weight_ih_l0 f4 [256, 30]
0	0x3da3ad26	0.0799201
1	0xbeb075aa	-0.3446477
2	0x3f17313f	0.5905952
3	0xbe34416a	-0.17603078
4	0x3f1203f8	0.57037306
5	0x3f075ef6	0.52879274
6	0xbb681db0	-0.0035418086
7	0x3e4bc9b1	0.19901158
8	0xbc6c1de3	-0.014411422
9	0x3f2cd28b	0.67508763
10	0xbe82de93	-0.25560436
11	0x3db9b3b9	0.090674825
12	0xbecf41b0	-0.40479803
13	0xbef8f4ea	-0.48624355
14	0xbe06709b	-0.13128893
15	0x3e2416c4	0.1602431
16	0x3edcf5f1	0.43156388
17	0x3ec0f703	0.37688455
18	0x3bc64074	0.006050164
19	0xbde4368c	-0.111432165
20	0xbf0a421c	-0.54007125
21	0xbe19ef38	-0.15032661
22	0xbebb59d7	-0.3659198
23	0xbe2ca58a	-0.16860023
24	0xbe0144fb	-0.1262397
25	0xbe7e3272	-0.24823931
26	0xbe994d95	-0.29942003
27	0x3d532e5b	0.05155788
28	0xbca100b8	-0.019653663
29	0xbecc2698	-0.39873195
30	0xbea4f896	-0.32220906
31	0x3e9aaaa9	0.30208328
32	0xbf26080a	-0.64856017
33	0x3dd03336	0.10166018
34	0xbe2f9036	-0.17144856
35	0x3d5f6fb9	0.054549906
36	0x3e9a0b25	0.30086628
37	0xbe9bbc84	-0.30417264
38	0xbe68e1ba	-0.22742358
39	0x3814923a	3.5422134e-05
40	0xbe4fd6e4	-0.20296818
41	0xbe3d5433	-0.1848915
42	0x3d6442d6	0.055727802
43	0xbdf31927	-0.11870032
44	0x3e7e1587	0.248129
45	0xbe00847e	-0.12550542
46	0xbd9a56c5	-0.07536081
47	0xbdb44036	-0.0880131
48	0xbe90a01a	-0.28247148
49	0xbb1dfef3	-0.002410826
50	0x3ec0b648	0.3763907
51	0x3e92bea5	0.28661075
52	0xbe5f015e	-0.21777865
53	0x3e35b4ed	0.17744799
54	0xbd4a6a32	-0.049417682
55	0xbd6dbd52	-0.058041878
56	0x3ded5e58	0.1159026
57	0x3dee9315	0.116491474
58	0x3de2cc7b	0.11074158
59	0x3edb502e	0.4283461
60	0x3ec7b219	0.39003065
61	0x3ebcbfa9	0.36864975
62	0xbc9d0e28	-0.01917179
63	0xbea85320	-0.3287592
64	0xbe666eaf	-0.2250316
65	0x3ef44d84	0.4771539
66	0xbd4e8708	-0.050421745
67	0xbdb11855	-0.08647219
68	0xbef60bde	-0.4805593
69	0xbd8dfa4e	-0.069325075
70	0x3e7139eb	0.2355725
71	0x3edcbc5d	0.4311246
72	0xbdc062f3	-0.09393873
73	0x3dc2a0ad	0.09503303
74	0x3c742ae6	0.014902806
75	0x3ed7d96d	0.4215807
76	0xbca17b0e	-0.019711997
77	0xbd214bde	-0.039378993
78	0x3f46f4bd	0.7771719
79	0xbe6e4425	-0.23268183
80	0xbebc2fe1	-0.3675528
81	0xbe167b57	-0.14695488
82	0xbe996eba	-0.2996729
83	0x3e378c9b	0.1792473
84	0xbdd0447d	-0.10169313
85	0xbf5e4115	-0.8681806
86	0xbf3b0278	-0.7305064
87	0x3df72206	0.12067036
88	0xbf119c14	-0.5687878
89	0xbe555af7	-0.20835482
90	0x3ea191d6	0.31556576
91	0xbe9c75d3	-0.30558643
92	0x3ea13f19	0.31493452
93	0x3e8893c8	0.26675248
94	0xbe7a50eb	-0.2444493
95	0x3eac9497	0.33707115
96	0x3e846768	0.25860143
97	0x3dc0814c	0.093996614
98	0x3dcff016	0.10153215
99	0xbe6c6bfa	-0.23088065
100	0x3d5f1a07	0.05446818
101	0xbdec0e06	-0.11526112
102	0xbe87b685	-0.2650644
103	0xbcb84f87	-0.02249886
104	0x3dadbbae	0.08483063
105	0xbce1f7e8	-0.027584031
106	0x3e4005fe	0.18752286
107	0x3e9aed9e	0.30259413
108	0x3ed79eff	0.42113492
109	0x3dd57df3	0.104244135
110	0xbca11b37	-0.019666297
111	0xbebb7d49	-0.36619022
112	0x3df829ed	0.12117372
113	0xbd99983d	-0.0749974
114	0xbe044b19	-0.12919272
115	0xbd6b7e3b	-0.05749343
116	0x3f28c579	0.6592632
117	0xbe3e41f6	-0.1857985
118	0x3eac8dfd	0.33702078
119	0xbe1c0e69	-0.15239872
120	0x3c93e138	0.018051729
121	0x3d989777	0.074507646
122	0xbe95da41	-0.29268077
123	0xbd0f09d3	-0.03492148
124	0x3ec6f58c	0.38859212
125	0xbeaae4c0	-0.33377647
126	0x3ef7bd53	0.4838663
127	0xbe7814da	-0.24226704
128	0xbe8da580	-0.2766533
129	0xbe26c982	-0.16287807
130	0xbbc6f967	-0.0060722115
131	0x3b9e01c4	0.004821988
132	0x3e771364	0.2412849
133	0x3eeca6e6	0.46221083
134	0x3d60def9	0.054900143
135	0x3f12dfb0	0.5737257
136	0xbe9e3753	-0.30901584
137	0x3d5c2be1	0.053752784
138	0xbecba92b	-0.39777502
139	0x3db66bf7	0.089073114
140	0xbec828eb	-0.39093718
141	0x3cae166c	0.021250926
142	0x3f060960	0.52358055
143	0xbeb53591	-0.3539243
144	0xbe92439a	-0.285672
145	0x3e506d52	0.20354202
146	0x3db33e05	0.08752064
147	0xbec7decb	-0.39037165
148	0xbf83df35	-1.0302492
149	0x3eca482d	0.3950819
150	0x3e88a652	0.26689392
151	0xbe495753	-0.19662218
152	0xbde808a2	-0.113297716
153	0xbe9e4e98	-0.30919337
154	0xbf006a25	-0.50161964
155	0x3f31bcde	0.69428813
156	0xbf086ce0	-0.5329113
157	0xbe7d7302	-0.24750903
158	0x3e46152d	0.19344015
159	0x3f728207	0.94729656
160	0xbee87769	-0.45403603
161	0x3cc7793e	0.024349805
162	0xbdc9b9de	-0.098499045
163	0xbea10352	-0.31447846
164	0xbd10b484	-0.035328403
165	0x3e36e3fe	0.1786041
166	0xbec75783	-0.38933954
167	0x3eb0c7c2	0.34527403
168	0x3e495592	0.19661549
169	0x3ea9ad5f	0.33140084
170	0x3e8fa20d	0.28053322
171	0xbeb9c4df	-0.36283013
172	0xbd1d5b13	-0.038416933
173	0x3dd34fae	0.10317932
174	0x3d2b7519	0.04185972
175	0xbf04adff	-0.51827997
176	0xbf1932d3	-0.59843177
177	0xbeb85502	-0.36002356
178	0xbeb56964	-0.3543197
179	0xbe817eb6	-0.25291985
180	0xbe9d6196	-0.30738515
181	0x3eafffe3	0.34374914
182	0xbe342ca0	-0.17595148
183	0x3e4405b8	0.19142807
184	0xbeea1f79	-0.45727137
185	0xbe96b4a4	-0.29434693
186	0x3f4daf65	0.80345756
187	0x3e2f3aa7	0.17112218
188	0xbe709ebd	-0.23498054
189	0xbd4f8800	-0.05066681
190	0x3dad3bda	0.084586814
191	0x3dc69db7	0.096980505
192	0xbe8cd5d9	-0.27506903
193	0xbc6e5530	-0.0145466775
194	0x3db0fda0	0.08642125
195	0x3e5b9e0f	0.21447013
196	0xbdc5376c	-0.096297115
197	0x3df8481c	0.12123129
198	0x3d36bc43	0.044613134
199	0x3ee1f5ed	0.4413294
200	0x3f14fe12	0.5820018
201	0xbeb0737b	-0.34463105
202	0xbc925e8f	-0.017867355
203	0x3d1163ce	0.03549557
204	0x3cdaf9a2	0.026730362
205	0xbe05fb26	-0.13084087
206	0x3e36b518	0.1784252
207	0x3e39aa6b	0.18131416
208	0xbf01965e	-0.5062007
209	0x3ed6458d	0.41849938
210	0x3f362b4d	0.7115982
211	0x3dbc5bba	0.09197183
212	0x3eef72b3	0.46767196
213	0xbde46568	-0.11152154
214	0x3de59f1c	0.11211988
215	0x3f7fff17	0.9999861
216	0xbf307400	-0.68927
217	0x3d9499e3	0.07255914
218	0xbe054172	-0.13013247
219	0xbec9786b	-0.39349684
220	0x3ef89cc7	0.48557112
221	0xbef89207	-0.4854891
222	0xbe87ef07	-0.2654955
223	0xbe243aa8	-0.16038
224	0xbb87f20d	-0.0041487277
225	0x3e57868f	0.21047424
226	0xbdd5c06e	-0.10437094
227	0x3c566039	0.013084465
228	0x3b396995	0.0028291692
229	0xbe00b234	-0.12567979
230	0xbf0e2860	-0.5553036
231	0xbe8bb951	-0.27289823
232	0xbded433d	-0.1158509
233	0xbebf6baa	-0.3738683
234	0x3e9bb129	0.304086
235	0xbe9571b2	-0.29188305
236	0xbe9dbc3f	-0.30807683
237	0xbe17e4c9	-0.14833368
238	0x3ecf886d	0.40533772
239	0xbf0b71bd	-0.54470426
240	0xbef1a2f6	-0.47194642
241	0xbba31f0c	-0.0049780663
242	0x3edab07b	0.4271277
243	0xbe83d924	-0.25751603
244	0xbeddec95	-0.4334456
245	0xbe9438b3	-0.28949508
246	0xbf3575eb	-0.70883054
247	0x3e7348fa	0.23758307
248	0xbe0a2129	-0.13489212
249	0xbcd8f3c4	-0.026483424
250	0xbe7262ef	-0.23670553
251	0x3e90e390	0.28298616
252	0x3daa3447	0.08310752
253	0xbe93c21a	-0.28859025
254	0xbe4a0554	-0.19728595
255	0x3f2c1e42	0.6723367

lstm.weight_hh_l0 f4 [256, 64]
0	0x3ce87fe8	0.028381303
1	0xbd43c0d4	-0.047791317
2	0xbab61400	-0.0013891459
3	0xbd5598a0	-0.052147508
4	0xbd7c88f8	-0.06165406
5	0xbdc77b26	-0.097402856
6	0x3cc66260	0.02421683
7	0x3d38dbb8	0.045131415
8	0x3d3a89b8	0.045541495
9	0xbd0014c4	-0.031269804
10	0xbc066280	-0.008202195
11	0x3dada440	0.08478594
12	0x3d70d488	0.058796436
13	0xbdcb5e64	-0.09930113
14	0x3de395ce	0.11112557
15	0xbc044170	-0.008072242
16	0x3d7dcbcc	0.061961934
17	0xbcf829d0	-0.030293375
18	0x3d961d36	0.0732979
19	0xbcc6d878	-0.024273142
20	0x3dd63b0c	0.10460481
21	0x3df0b4ea	0.117532566
22	0xbca832c0	-0.020532012
23	0x3cd42ad0	0.02589932
24	0xbd34d17c	-0.044145092
25	0xbdab6fc4	-0.08370927
26	0x3d56d7a4	0.052451745
27	0x3ca5a060	0.020218074
28	0xbd517400	-0.051136017
29	0x3c821138	0.015877351
30	0xbd98c680	-0.07459736
31	0xbcf8adb0	-0.030356258
32	0xbdd1b79e	-0.102401
33	0x3d7e7c14	0.06213005
34	0xbd5622f4	-0.052279428
35	0xbc365a10	-0.011129871
36	0x3c9e5518	0.019327685
37	0x3da03b9c	0.078238696
38	0x3da15cd2	0.07879032
39	0xbd51fa1c	-0.051263914
40	0x3d7475a0	0.05968249
41	0xbd85dd60	-0.065363646
42	0x3da8bc58	0.08239049
43	0xbca4e880	-0.020130396
44	0x3c3c6020	0.011497527
45	0xbdbe7b4c	-0.09300861
46	0x3d3e4b6c	0.046458647
47	0xbdb108fc	-0.08644292
48	0xbdbac1a2	-0.09118964
49	0x3c514690	0.012773171
50	0xbb197300	-0.0023414493
51	0x3d712460	0.05887258
52	0x3d81c2c0	0.06335974
53	0xbc461e50	-0.012092188
54	0x3d374630	0.04474467
55	0x3d1e4098	0.03863582
56	0xbc8867e8	-0.016651109
57	0xbd4bc528	-0.04974857
58	0xbd07b9a4	-0.033136025
59	0xbb9a4d20	-0.004708901
60	0xbd9a2bde	-0.07527898
61	0x3dcd66e8	0.100293934
62	0x3df602b0	0.12012231
63	0x3defa844	0.11702016
64	0x3d2f4dec	0.04279892
65	0xbd71de74	-0.05905004
66	0xbdcd558a	-0.10026081
67	0xbda63938	-0.08116382
68	0xbd2f5c5c	-0.04281269
69	0x3bc04b00	0.0058683157
70	0x3dba0192	0.09082331
71	0x3cc2ad88	0.023764387
72	0xbdee3bec	-0.11632523
73	0xbd85c9a6	-0.06532602
74	0x3db6a616	0.08918397
75	0x3d508460	0.050907493
76	0x3d94fea4	0.07275131
77	0x3d7bc588	0.061467677
78	0x3d85d02c	0.06533846
79	0xbcb4bec8	-0.022063628
80	0xbd0a6824	-0.033790722
81	0x3d85bebe	0.06530522
82	0x3da1691e	0.07881378
83	0xbde29f4c	-0.1106554
84	0x3dbda914	0.09260765
85	0x3dff7e18	0.12475222
86	0xbdefc5e6	-0.11707668
87	0xbc993a20	-0.018704474
88	0x3dad3fce	0.084594354
89	0x3d6b619c	0.057466134
90	0x3dd6d7f6	0.1049041
91	0xbd7a0440	-0.06103921
92	0x3de95428	0.11393005
93	0x3a043b00	0.0005044192
94	0xbdac42fc	-0.08411214
95	0xbcd920b0	-0.026504844
96	0xbdd728fc	-0.10505864
97	0xbcf3c898	-0.029758736
98	0x3daa9dd0	0.083308816
99	0x3dbe77da	0.093002036
100	0x3c97d8c0	0.018535972
101	0x3da70038	0.081543386
102	0xbdeeb952	-0.11656441
103	0x3d6cc698	0.05780658
104	0xbd9177ba	-0.07102914
105	0x3dc7980c	0.097457975
106	0xbd2820f4	-0.04104705
107	0xbd4ffa40	-0.050775766
108	0xbd887af8	-0.066640794
109	0x3ddfcfec	0.1092833
110	0x3dfd315e	0.12362932
111	0x3d7f2d80	0.06229925
112	0x3df16248	0.11786324
113	0xbdaaeb24	-0.08345631
114	0x3df01846	0.1172338
115	0xbdb4dac2	-0.08830787
116	0xbd0b07e8	-0.033943087
117	0xbd6d325c	-0.057909355
118	0xbd6822e0	-0.056673884
119	0xbcb1a050	-0.021682888
120	0x3d605284	0.054766193
121	0xbde7ae74	-0.11312571
122	0xbcb8f650	-0.022578388
123	0xbdb8c022	-0.090210214
124	0x3dade972	0.08491792
125	0x3db8d7ce	0.090255365
126	0xbd9628b0	-0.07331979
127	0x3d9a9e5a	0.075497344
128	0xbcfcc568	-0.03085585
129	0xbd63081c	-0.055427656
130	0x3db1e202	0.08685686
131	0x3de36ee6	0.111051366
132	0xbdb619ea	-0.088916615
133	0xbdf33820	-0.11875939
134	0xbd8ac2e6	-0.06775455
135	0xbd8b4804	-0.06800845
136	0xbdf203fe	-0.11817168
137	0x3dd3b876	0.103379175
138	0xbcf8cdf8	-0.030371651
139	0xbdb0d56e	-0.086344585
140	0x3db25c46	0.08709006
141	0xbd653bd0	-0.055965245
142	0xbc674ac0	-0.014116943
143	0x3d77f0ec	0.060532495
144	0xbc0fc430	-0.008774802
145	0xbd236474	-0.03989072
146	0xbc48c480	-0.0122538805
147	0x3cd47c20	0.025938094
148	0xbc9c3e88	-0.019072786
149	0x3cbc1d78	0.02296327
150	0xbd032be8	-0.032024294
151	0xbbb3aa60	-0.0054829568
152	0x3ce0f2e8	0.027459577
153	0xbda5714e	-0.08078252
154	0x3d86cf74	0.06582537
155	0xbd9e1ecc	-0.07720718
156	0xbb21d680	-0.0024694502
157	0x3d09af74	0.03361459
158	0x3cbdf338	0.023187265
159	0x3c89a9d8	0.01680462
160	0xbd98692c	-0.07441935
161	0xbdc63062	-0.09677197
162	0x3c786250	0.015160158
163	0xbd67c288	-0.056582004
164	0x3d8db2b0	0.069188476
165	0xbcbf6290	-0.023362428
166	0x3d758a7c	0.059946522
167	0x3ddf23be	0.10895489
168	0x3d8831cc	0.06650123
169	0x3dc25a6a	0.09489901
170	0xbd5d5998	-0.05404052
171	0x3d6f5f7c	0.05844067
172	0xbd3e69a8	-0.04648748
173	0xbd619490	-0.05507332
174	0xbdd8451c	-0.105600566
175	0x3d973db8	0.07384819
176	0xbde16006	-0.11004643
177	0x3bd0f520	0.0063768774
178	0xbdb583f0	-0.08863056
179	0x3cd913f0	0.026498765
180	0xbceb1138	-0.028694734
181	0x3dbdbfb2	0.092650786
182	0xbdf58d36	-0.119898245
183	0xbd910820	-0.07081628
184	0xbd804f88	-0.062651694
185	0x3d3aa884	0.045570865
186	0x3dfd3274	0.12363139
187	0xbd23d2cc	-0.039995953
188	0xbd25e61c	-0.040502653
189	0xbdf1be58	-0.11803883
190	0x3dcc6f68	0.099821866
191	0x3d03ba1c	0.03215991
192	0x3d81a7e4	0.06330851
193	0x3dd60ada	0.104512885
194	0xbdb78aec	-0.08962044
195	0x3d0c1ca8	0.034207016
196	0xbc182730	-0.009286687
197	0x3ce41c20	0.027845442
198	0xbc9817e0	-0.018566072
199	0x3de78d76	0.113062784
200	0xbdea6340	-0.11444712
201	0x3b7ea7c0	0.003885731
202	0xbde10b68	-0.10988504
203	0xbd9210ba	-0.071320966
204	0xbdc638c2	-0.096787944
205	0xbdd4272c	-0.10359034
206	0x3d50695c	0.05088173
207	0xbc0186c0	-0.007905662
208	0x3d8dd57a	0.06925483
209	0xbd777bf8	-0.06042096
210	0x3dbcdb18	0.09221476
211	0x3dd91d2c	0.10601267
212	0xbcfd0d18	-0.030890033
213	0x3bf48780	0.007462442
214	0xbda11060	-0.078644514
215	0x3d139b98	0.036037058
216	0xbb9ca020	-0.0047798306
217	0xbbd5bd40	-0.0065228045
218	0x3da10916	0.07863061
219	0x3c119700	0.008886099
220	0x3cbffe88	0.0234368
221	0x3d88d69c	0.066815585
222	0xbd975a4a	-0.07390268
223	0x3d7eaac0	0.06217456
224	0xbc1693c0	-0.0091905
225	0x3da79f50	0.08184683
226	0x3d720fb8	0.05909702
227	0x3de3ecdc	0.11129162
228	0xbcfabcf8	-0.030607685
229	0x3d4a5520	0.049397588
230	0xbdc7a9c2	-0.097491756
231	0xbd01cb54	-0.03168805
232	0xbc0ca990	-0.008585349
233	0xbc1c0710	-0.009523168
234	0x3db2fcd2	0.08739628
235	0xbd9894da	-0.07450266
236	0xbd9f2520	-0.07770753
237	0xbdf6993e	-0.120409474
238	0xbdde2f32	-0.108488455
239	0xbd3ef69c	-0.046621904
240	0x3daeabb4	0.085288435
241	0x3dde4c0a	0.10854347
242	0x3c2c7830	0.010526702
243	0x3b41a600	0.0029548407
244	0x3dcfbb74	0.10143176
245	0x3daa44ac	0.08313879
246	0xbbcdd440	-0.0062814057
247	0x3db2dd00	0.08733559
248	0x3dc3d29e	0.095616564
249	0x3d93ea16	0.07222383
250	0x3cb4b268	0.022057727
251	0xbc1e54a0	-0.009663731
252	0xbcce1c30	-0.025159925
253	0x3d573100	0.052536964
254	0xbdc5d46a	-0.096596554
255	0xbdddc568	-0.10828668

lstm.bias_ih_l0 f4 [256]
0	0x3f311f5c	0.69188476
1	0x3eb4d5e7	0.35319445
2	0x3e9daf7a	0.3079794
3	0x3ef8bf91	0.48583654
4	0x3eb8b858	0.36078143
5	0x3f2b48bd	0.66907865
6	0x3ec80965	0.39069667
7	0x3efe1d15	0.49631563
8	0x3ea974d4	0.33096945
9	0x3f20b704	0.6277926
10	0x3f0075d0	0.5017977
11	0x3ef27c77	0.47360584
12	0x3f2b9dc8	0.6703763
13	0x3e24daf3	0.16099147
14	0x3f072772	0.52794564
15	0x3eb969c6	0.3621351
16	0x3f11bec4	0.5693171
17	0x3ecf4055	0.4047877
18	0x3e620fe8	0.2207638
19	0x3e656cb5	0.2240475
20	0x3ebf2e78	0.3734014
21	0x3f0d2253	0.551305
22	0x3e5c5db2	0.21520117
23	0x3f199536	0.599933
24	0x3f32f15d	0.6989954
25	0x3eec3839	0.46136644
26	0x3efe7944	0.49701893
27	0x3f5aa5dd	0.8540934
28	0x3f10e01b	0.5659196
29	0x3e895351	0.26821378
30	0x3ea58405	0.32327285
31	0x3f1b63c7	0.60699123
32	0x3eeb9cb0	0.4601798
33	0xbb6d7dd6	-0.0036238334
34	0x3f1c552a	0.6106745
35	0x3e5ea4ed	0.21742602
36	0x3eb7e72e	0.35918564
37	0x3e572adb	0.21012442
38	0x3f2282f0	0.63481045
39	0x3f1e2bde	0.61785686
40	0x3eff63c9	0.49880818
41	0x3ed6953d	0.41910735
42	0x3f641111	0.8908854
43	0x3e6bb61c	0.23018688
44	0x3eba7f8b	0.36425433
45	0x3ead9522	0.33902842
46	0x3f3a02cc	0.7266052
47	0x3f25842d	0.6465481
48	0x3efc1dc8	0.4924147
49	0x3f3f9a0c	0.7484443
50	0x3e78a36a	0.24281088
51	0x3f30d842	0.69079983
52	0x3f323ec8	0.69627047
53	0x3eb852c8	0.36000657
54	0x3f69899f	0.9122562
55	0x3e331312	0.17487743
56	0x3e65f2d4	0.22455913
57	0x3f0a4fb2	0.54027855
58	0x3f209221	0.62722975
59	0x3e8846c0	0.26616478
60	0x3e33c59c	0.1755585
61	0x3f022cf8	0.50849867
62	0x3ed45785	0.41473022
63	0x3f11444e	0.5674485
64	0xbc1dc030	-0.009628341
65	0xbddfdaa2	-0.10930373
66	0xbd02e338	-0.031954974
67	0x3d837a48	0.06419808
68	0xbdf2073c	-0.11817786
69	0xbdf38eac	-0.11892447
70	0x3db08894	0.086198
71	0x3b272300	0.002550304
72	0x3c946630	0.018115133
73	0x3cf703c0	0.030153155
74	0xbd608414	-0.05481346
75	0x3dac88ae	0.08424507
76	0xbd9e4f92	-0.077300206
77	0x3d381804	0.044944778
78	0x3d88a332	0.06671752
79	0xbbc05180	-0.0058690906
80	0xbde4334e	-0.11142598
81	0xbda2b5d6	-0.07944839
82	0x3df91b48	0.121634066
83	0xbd53e900	-0.051735878
84	0x3db42df8	0.0879783
85	0xbcf8b688	-0.030360475
86	0xbd3ed078	-0.04658553
87	0x3cab99f8	0.020947441
88	0x3d335ff4	0.04379268
89	0xbd4787c0	-0.048713446
90	0x3da8d00c	0.08242807
91	0x3dbd024a	0.09228952
92	0xbd9c3b50	-0.076285005
93	0xbda70886	-0.081559226
94	0x3dd77498	0.10520285
95	0x3c9935d8	0.018702433
96	0x3d6ebe74	0.0582871
97	0xbdf6a49e	-0.12043117
98	0xbad25b00	-0.0016048849
99	0x3d55f598	0.05223617
100	0x3dc9d324	0.09854725
101	0xbd9fef74	-0.07809344
102	0xbddd0b50	-0.10793173
103	0x3da42672	0.08015145
104	0xbc75e870	-0.015009031
105	0xbcbd45f0	-0.023104638
106	0x3b961ca0	0.004581049
107	0xbd9c1bde	-0.07622503
108	0xbd91daa4	-0.071217805
109	0x3d2f883c	0.042854533
110	0xbd995320	-0.07486558
111	0xbdfc9dc4	-0.12334779
112	0xbdab7dc4	-0.08373597
113	0xbd47aa20	-0.04874623
114	0x3df605ae	0.12012802
115	0xbde9f5ca	-0.11423834
116	0xbcaa7910	-0.02080968
117	0xbca3aea0	-0.019980729
118	0xbda4e73e	-0.080519184
119	0xbde0d0d4	-0.10977331
120	0x3deefbb8	0.11669105
121	0xbdd05cca	-0.10173948
122	0x3de4ca0e	0.111713514
123	0xbd8827cc	-0.06648216
124	0x3df1c400	0.11804962
125	0xbdd5387a	-0.10411163
126	0xbda1e358	-0.079046905
127	0xbd931988	-0.07182604
128	0x3eb59f4f	0.35473105
129	0x3ed44075	0.41455427
130	0xbe158619	-0.14601935
131	0xbdf296a6	-0.1184514
132	0xbe781382	-0.24226192
133	0x3eeb2ba5	0.45931736
134	0xbeef43ad	-0.4673132
135	0x3ea32db8	0.31870818
136	0x3e97188f	0.29510924
137	0xbec3c92a	-0.38239413
138	0x3ddd5449	0.10807092
139	0x3e7a89ba	0.24466601
140	0xbd6fd5fb	-0.058553677
141	0x3e84fd3b	0.2597445
142	0x3ed7db67	0.42159578
143	0x3e1a3947	0.15060912
144	0x3e9d6168	0.30738378
145	0xbdf965aa	-0.12177594
146	0x3e35503d	0.1770639
147	0xbeacfae6	-0.3378517
148	0x3ed92ca2	0.42416865
149	0xbe74358d	-0.23848553
150	0xbe96c6af	-0.2944846
151	0x3e9c676e	0.3054766
152	0x3eacf78f	0.33782622
153	0x3e59594d	0.21225472
154	0xbeafe35b	-0.34353146
155	0x3e456301	0.19276048
156	0xbe9d3fbc	-0.30712688
157	0xbefb5678	-0.49089408
158	0x3e614593	0.21999197
159	0xbeafa9bd	-0.34309188
160	0xbe62ffbb	-0.22167866
161	0x3e2000a0	0.15625238
162	0x3e327e70	0.17431045
163	0x3e6c3077	0.23065363
164	0x3ec4527c	0.3834418
165	0xbed2924d	-0.41127244
166	0x3ed99a93	0.42500743
167	0x3ebd82f2	0.37013966
168	0xbea798ae	-0.32733673
169	0xbe8533ec	-0.26016176
170	0xbf165f99	-0.5873962
171	0x3eeae0b8	0.45874572
172	0xbee5f691	-0.44914678
173	0x3ee11ee2	0.43968874
174	0x3edc9a73	0.43086585
175	0x3eb00d7d	0.3438529
176	0xbebea28a	-0.37233382
177	0xbf1ffee9	-0.6249834
178	0xbee42a33	-0.44563445
179	0xbe975a41	-0.29561046
180	0x3eb777ab	0.35833487
181	0xbd876983	-0.06611922
182	0x3f1c2373	0.6099159
183	0xbe4dc0eb	-0.20093124
184	0x3f02f332	0.51152337
185	0x3edc93bd	0.43081465
186	0xbeab41c7	-0.33448622
187	0xbeafeaf3	-0.3435894
188	0xbe994c43	-0.29940996
189	0xbedae800	-0.42755127
190	0x3e1a9b15	0.15098222
191	0x3ec5a894	0.38605177
192	0x3f5c58f0	0.8607321
193	0x3eebdd60	0.46067333
194	0x3ed31350	0.41225672
195	0x3e70c85c	0.23513931
196	0x3e6c0598	0.23049009
197	0x3f41c38f	0.75689024
198	0x3e6af135	0.22943576
199	0x3f095549	0.5364576
200	0x3e919135	0.28431097
201	0x3f37f668	0.7186036
202	0x3ebfe87a	0.37482053
203	0x3eed9751	0.46404508
204	0x3f436b0b	0.7633521
205	0x3e8466df	0.25859734
206	0x3eab916a	0.3350938
207	0x3e8fae81	0.28062823
208	0x3ef7c182	0.48389822
209	0x3f395446	0.72394216
210	0x3e14992c	0.14511555
211	0x3eca625c	0.39528167
212	0x3f2a84ff	0.66609186
213	0x3f186aa4	0.5953772
214	0x3ede261d	0.43388453
215	0x3ef4d859	0.4782131
216	0x3f31c2c1	0.69437796
217	0x3f070f48	0.5275769
218	0x3ed3fb52	0.4140268
219	0x3f052b4f	0.5201921
220	0x3f03b162	0.5144254
221	0x3e7d74b6	0.24751553
222	0x3efb26ed	0.49053136
223	0x3efadd04	0.48996747
224	0x3f3f13fb	0.7463986
225	0x3e0299a3	0.1275392
226	0x3ed2ccc1	0.4117184
227	0x3e498c1f	0.19682358
228	0x3ecbee28	0.39830136
229	0x3e946e9a	0.28990632
230	0x3f33bb48	0.70207644
231	0x3f1900c8	0.5976682
232	0x3eba00b6	0.36328667
233	0x3e8903d5	0.26760736
234	0x3f2bea67	0.67154545
235	0x3ee80969	0.4531968
236	0x3e70b74f	0.23507427
237	0x3ead368b	0.33830675
238	0x3f099e1a	0.5375687
239	0x3f231a1f	0.6371173
240	0x3ea9729c	0.33095253
241	0x3f564784	0.83702874
242	0x3f0d6512	0.55232346
243	0x3f38bdcb	0.721646
244	0x3ef78897	0.48346397
245	0x3e675b77	0.22593485
246	0x3f604ac7	0.876141
247	0x3e6b8ad5	0.23002179
248	0x3e1d2e9d	0.15349813
249	0x3ecefb25	0.40425983
250	0x3f11c876	0.56946504
251	0x3eba97a4	0.36443818
252	0x3e97ec00	0.2967224
253	0x3eb6123b	0.35560784
254	0x3e8e9f7d	0.27856055
255	0x3f349839	0.70544773

lstm.bias_hh_l0 f4 [256]
0	0x3f1c9260	0.6116085
1	0x3efbf592	0.49210793
2	0x3ea89b70	0.3293109
3	0x3f0e75ac	0.55648303
4	0x3e6caef5	0.23113616
5	0x3f4b39eb	0.7938525
6	0x3e823317	0.25429603
7	0x3eca1d17	0.3947532
8	0x3ed2c73c	0.4116763
9	0x3f2f8948	0.6856885
10	0x3ed56a68	0.41682744
11	0x3ee8b33d	0.45449248
12	0x3f119a55	0.56876117
13	0x3e38d19d	0.18048711
14	0x3ec9f0de	0.3944158
15	0x3ed6439a	0.4184845
16	0x3f361e7e	0.7114028
17	0x3eb88a71	0.36043122
18	0x3e9218d0	0.28534555
19	0x3eb72b78	0.35775352
20	0x3f00f196	0.5036863
21	0x3eede560	0.46464062
22	0x3e2755bc	0.16341299
23	0x3f1f5b08	0.6224828
24	0x3f12c471	0.57330996
25	0x3ed766bf	0.42070577
26	0x3f0b73b0	0.544734
27	0x3f575e9f	0.84128755
28	0x3ed045eb	0.40678343
29	0x3ed17173	0.40906867
30	0x3e886f95	0.2664763
31	0x3f1a4d49	0.6027418
32	0x3f045447	0.516911
33	0x3e045916	0.12924609
34	0x3f038c2a	0.5138575
35	0x3e54ac13	0.20768766
36	0x3efa2817	0.4885871
37	0x3e5236a5	0.20528658
38	0x3f2028ee	0.62562454
39	0x3f486d5e	0.7829188
40	0x3f0982aa	0.53715
41	0x3ed04eb1	0.40685037
42	0x3f47a04b	0.7797896
43	0x3e88175b	0.2658032
44	0x3ea9f37f	0.33193585
45	0x3e7b6e8d	0.2455389
46	0x3f22c088	0.6357503
47	0x3f42a967	0.7603974
48	0x3eba5426	0.36392325
49	0x3f2ce2ee	0.6753377
50	0x3e8d80f4	0.27637446
51	0x3f2a318c	0.6648185
52	0x3f1b52fa	0.6067349
53	0x3ed4e64e	0.4158196
54	0x3f4bd645	0.79623824
55	0x3e93a3d5	0.2883593
56	0x3e47b658	0.19503152
57	0x3f1f619b	0.6225831
58	0x3ed29876	0.41131943
59	0x3ec81754	0.39080298
60	0x3e8a1ceb	0.26975188
61	0x3ec81fe5	0.39086834
62	0x3e89e2f9	0.2693098
63	0x3f13a594	0.5767453
64	0x3dfac534	0.12244645
65	0xbd968384	-0.07349303
66	0x3d87993a	0.066210225
67	0x3dfaf850	0.12254393
68	0x3dfca75c	0.12336609
69	0xbd86cb14	-0.06581703
70	0x3d7bf05c	0.06150852
71	0xbdf5267a	-0.119702294
72	0x3dc458b8	0.09587234
73	0xbd2e262c	-0.042516872
74	0xbdbe99e6	-0.093066975
75	0x3dfdfe72	0.12402047
76	0x3d1c34c4	0.03813626
77	0x3c209f10	0.009803548
78	0x3cb49748	0.022044793
79	0x3dabe9ba	0.08394189
80	0x3da69a12	0.08134855
81	0xbd904d9e	-0.07046054
82	0xbda86742	-0.0822282
83	0xbd871c84	-0.06597236
84	0x3d7f69a4	0.062356606
85	0xbd314540	-0.043278933
86	0xbdab3872	-0.083603755
87	0xbbd04460	-0.006355807
88	0xbdce3bf6	-0.100700304
89	0xbd3b61f8	-0.045747727
90	0x3d41d514	0.047322348
91	0x3d204560	0.03912866
92	0x3b9962c0	0.0046809614
93	0xbbf1dac0	-0.0073808134
94	0x3df79c72	0.120903865
95	0xbd878ee6	-0.066190526
96	0xbde0e83c	-0.10981795
97	0x3c846120	0.016159594
98	0xbdc1fc8c	-0.094719976
99	0xbd71c73c	-0.059027895
100	0xbd16507c	-0.03669785
101	0x3d147ed4	0.036253765
102	0x3d9d3106	0.07675366
103	0x3dc53ee0	0.09631133
104	0xbd00196c	-0.031274244
105	0xbdf0be5e	-0.1175506
106	0x3da1a8d2	0.07893528
107	0x3d6d5d80	0.057950497
108	0x3dd0615e	0.10174821
109	0x3ca4fb20	0.020139277
110	0xbd273728	-0.040824085
111	0xbd86c48e	-0.065804586
112	0x3dfdf462	0.12400128
113	0x3d0c5a94	0.03426607
114	0xbd6b0520	-0.057377934
115	0x3d9538a4	0.07286194
116	0x3cef17e0	0.02918619
117	0xbd063c44	-0.032772318
118	0x3de6aba8	0.112632096
119	0x3d0dc500	0.034611702
120	0x3dbca2ba	0.09210725
121	0x3cbecaf8	0.023290142
122	0x3be58820	0.0070047528
123	0x3da12c3e	0.07869767
124	0x3d88cf5c	0.06680176
125	0x3dede1da	0.116153434
126	0x3c454920	0.01204136
127	0x3d36ab9c	0.044597253
128	0x3e83051c	0.25589836
129	0x3eccef0f	0.40026137
130	0xbe6640c5	-0.22485645
131	0xbe6aaea5	-0.22918184
132	0xbe4d5d22	-0.20055059
133	0x3ed4a267	0.41530153
134	0xbf083d02	-0.5321809
135	0x3eb5b478	0.3548925
136	0x3eaf1cf5	0.3420178
137	0xbe8d99dc	-0.27656448
138	0x3e477fd8	0.19482362
139	0x3ea9a053	0.3313013
140	0xbe52a1a8	-0.2056948
141	0x3ecc8819	0.39947584
142	0x3eacf5f3	0.33781394
143	0x3e5ab481	0.2135792
144	0x3e8e6db9	0.27818087
145	0xbe0495d2	-0.12947777
146	0x3e2b5d1f	0.16734742
147	0xbefa0ff9	-0.4884031
148	0x3ecf5568	0.40494847
149	0xbe8e03e9	-0.27737358
150	0xbe9a60fb	-0.30152115
151	0x3f0b2104	0.5434725
152	0x3ed334ed	0.41251317
153	0x3e243307	0.1603509
154	0xbf12969e	-0.57261074
155	0x3e82f07a	0.25574094
156	0xbeacc475	-0.33743635
157	0xbed5d801	-0.4176636
158	0x3e7c867b	0.24660675
159	0xbea032f5	-0.31288877
160	0xbe88fa30	-0.26753378
161	0x3e1ebf3c	0.15502638
162	0x3ec6c578	0.38822532
163	0x3e8fcd7b	0.28086457
164	0x3ece1c42	0.40255934
165	0xbec28ebb	-0.3799952
166	0x3f1cd884	0.61267877
167	0x3e92eae3	0.2869483
168	0xbe80257f	-0.25028607
169	0xbe94b420	-0.29043674
170	0xbf035920	-0.5130787
171	0x3ec4ea06	0.38459796
172	0xbe6d8b8c	-0.23197764
173	0x3ece7bb2	0.40328747
174	0x3ed96a41	0.42463878
175	0x3e93512b	0.28772864
176	0xbf05414b	-0.52052754
177	0xbf285603	-0.65756243
178	0xbed679dd	-0.4188985
179	0xbea619b7	-0.32441494
180	0x3e9299cb	0.2863296
181	0x3dcf8069	0.10131914
182	0x3f3b2ba1	0.7311345
183	0xbe25dadf	-0.16196774
184	0x3f11c2e7	0.5693802
185	0x3ec1eb9d	0.3787507
186	0xbe40e2b2	-0.18836477
187	0xbe9bcf6b	-0.30431685
188	0xbe1ead2d	-0.15495749
189	0xbe7faf69	-0.24969257
190	0x3e9e4320	0.30910587
191	0x3ec29e3e	0.38011354
192	0x3f809f39	1.0048591
193	0x3ed9133c	0.42397487
194	0x3edf1546	0.43570918
195	0x3e94e4a9	0.29080704
196	0x3e7c9141	0.24664785
197	0x3f46d2ab	0.77665204
198	0x3e929d60	0.28635693
199	0x3f00c383	0.5029833
200	0x3ea4fbaf	0.3222327
201	0x3f23f9aa	0.6405283
202	0x3ea8d550	0.32975245
203	0x3f1da851	0.61584955
204	0x3f2efb17	0.6835188
205	0x3eb2ac77	0.34897205
206	0x3ebf9e4c	0.37425458
207	0x3eeb6411	0.45974782
208	0x3ed42298	0.41432643
209	0x3f3a7d02	0.72846997
210	0x3d6c81ad	0.057740856
211	0x3e7222ec	0.23646134
212	0x3ee58ef9	0.44835642
213	0x3ec915dc	0.3927449
214	0x3eb84c07	0.35995504
215	0x3f257953	0.6463825
216	0x3f4c2e4d	0.7975815
217	0x3ea440be	0.32080644
218	0x3f0057d9	0.50134045
219	0x3f302efd	0.688217
220	0x3f0780a3	0.5293066
221	0x3ea5c05a	0.32373315
222	0x3eda7065	0.42663875
223	0x3f1b0e33	0.6056854
224	0x3f3b86df	0.7325267
225	0x3e53b6bd	0.20675178
226	0x3ec6c1c7	0.38819715
227	0x3e8d1ddd	0.27561846
228	0x3ec8bb40	0.3920536
229	0x3e81b0bb	0.25330147
230	0x3f478ed4	0.77952313
231	0x3f40a020	0.7524433
232	0x3edfb02a	0.4368909
233	0x3ea6cdff	0.32579038
234	0x3f3315b1	0.69954973
235	0x3ee5e10f	0.4489827
236	0x3e05b9a5	0.13059099
237	0x3eb0b661	0.34514144
238	0x3f188c47	0.59589046
239	0x3f4625b5	0.77401286
240	0x3eaef8c8	0.3417418
241	0x3f2fd858	0.6868949
242	0x3eda717f	0.42664716
243	0x3f473193	0.7781002
244	0x3f1377ff	0.57604975
245	0x3ee6e633	0.45097503
246	0x3f8b0b00	1.0862732
247	0x3ec13498	0.37735438
248	0x3e53f8ed	0.20700426
249	0x3ee02433	0.43777618
250	0x3f348872	0.705207
251	0x3ec29efa	0.38011914
252	0x3e6f2607	0.2335435
253	0x3eaf82e3	0.34279546
254	0x3ec45187	0.3834345
255	0x3f305ab7	0.6888842

fc.weight f4 [1, 64]
0	0xbf2cb265	-0.6745971
1	0xbf11a0dc	-0.56886077
2	0x3f64c6a3	0.89365596
3	0x3f69b8e6	0.9129776
4	0x3f2c8f7f	0.6740646
5	0xbf7db496	-0.9910368
6	0x3e99c7dc	0.30035293
7	0xbf307eff	-0.6894378
8	0xbee5f913	-0.4491659
9	0x3f4a3102	0.7898103
10	0xbf72b255	-0.94803363
11	0xbf172ed5	-0.59055835
12	0x3f51fbca	0.82024825
13	0xbecd0a19	-0.40046766
14	0xbf0b1a44	-0.54336953
15	0xbf0e057f	-0.55477136
16	0xbf54c5e5	-0.83114463
17	0x3f48be5d	0.7841547
18	0xbeda92ee	-0.42690223
19	0x3e94f062	0.29089648
20	0xbf0f6d64	-0.5602629
21	0x3f6a015e	0.91408336
22	0x3f512ee6	0.81712186
23	0xbf257454	-0.6463063
24	0xbf59ba02	-0.8504945
25	0xbf44e3d6	-0.7691015
26	0x3f05e448	0.52301455
27	0xbf26ab21	-0.6510487
28	0x3f9c4dff	1.2211303
29	0x3ee495a6	0.44645423
30	0xbf0ce040	-0.5502968
31	0x3eef0e4a	0.4669059
32	0x3f8b7b93	1.0897087
33	0xbf249338	-0.6428714
34	0xbf0dde12	-0.5541698
35	0xbf1a9fde	-0.6040019
36	0xbf1f9fa2	-0.62352955
37	0x3f0037ec	0.5008533
38	0xbf7e9ed6	-0.99461114
39	0xbf452422	-0.7700826
40	0x3f181332	0.5940429
41	0x3f09d0ef	0.5383443
42	0x3f969138	1.1763067
43	0xbeeaf194	-0.45887434
44	0x3db43892	0.087998524
45	0xbf092231	-0.53567797
46	0xbf4b7fba	-0.7949177
47	0xbf39346d	-0.7234562
48	0x3f0c1d28	0.5473199
49	0x3f186772	0.59532845
50	0x3f219490	0.63117313
51	0x3f1944b0	0.59870434
52	0xbf969f70	-1.1767406
53	0xbf1ca256	-0.61185205
54	0xbf3ad95e	-0.72987926
55	0x3f1bb6d2	0.60825837
56	0xbef2f53b	-0.4745272
57	0xbf052f0b	-0.52024907
58	0x3f70eb0a	0.9410864
59	0x3f20218a	0.62551177
60	0x3f2c50db	0.67310876
61	0x3f1120fc	0.56690955
62	0xbf455617	-0.7708449
63	0xbf6f3fda	-0.93456805
